name: "VGG_CNN_M_1024"
input: "data"
input_shape {
  dim: 1
  dim: 3
  dim: 224
  dim: 224
}
input: "rois"
input_shape {
  dim: 1 # to be changed on-the-fly to num ROIs
  dim: 5 # [batch ind, x1, y1, x2, y2] zero-based indexing
}
input: "boxscores"
input_shape {
  dim: 1 # to be changed on-the-fly to num ROIs
}

##################################




layer {
  name: "conv1"
  type: "Convolution"
  bottom: "data"
  top: "conv1"
  param { lr_mult: 0 decay_mult: 0 }
  param { lr_mult: 0 decay_mult: 0 }
  convolution_param {
    num_output: 96
    kernel_size: 7
    stride: 2
  }
}
layer {
  name: "relu1"
  type: "ReLU"
  bottom: "conv1"
  top: "conv1"
}
layer {
  name: "norm1"
  type: "LRN"
  bottom: "conv1"
  top: "norm1"
  lrn_param {
    local_size: 5
    alpha: 0.0005
    beta: 0.75
    k: 2
  }
}
layer {
  name: "pool1"
  type: "Pooling"
  bottom: "norm1"
  top: "pool1"
  pooling_param {
    pool: MAX
    kernel_size: 3
    stride: 2
  }
}
layer {
  name: "conv2"
  type: "Convolution"
  bottom: "pool1"
  top: "conv2"
  param {
    lr_mult: 1
  }
  param {
    lr_mult: 2
  }
  convolution_param {
    num_output: 256
    pad: 1
    kernel_size: 5
    stride: 2
  }
}
layer {
  name: "relu2"
  type: "ReLU"
  bottom: "conv2"
  top: "conv2"
}
layer {
  name: "norm2"
  type: "LRN"
  bottom: "conv2"
  top: "norm2"
  lrn_param {
    local_size: 5
    alpha: 0.0005
    beta: 0.75
    k: 2
  }
}
layer {
  name: "pool2"
  type: "Pooling"
  bottom: "norm2"
  top: "pool2"
  pooling_param {
    pool: MAX
    kernel_size: 3
    stride: 2
  }
}
layer {
  name: "conv3"
  type: "Convolution"
  bottom: "pool2"
  top: "conv3"
  param {
    lr_mult: 1
  }
  param {
    lr_mult: 2
  }
  convolution_param {
    num_output: 512
    pad: 1
    kernel_size: 3
  }
}
layer {
  name: "relu3"
  type: "ReLU"
  bottom: "conv3"
  top: "conv3"
}
layer {
  name: "conv4"
  type: "Convolution"
  bottom: "conv3"
  top: "conv4"
  param {
    lr_mult: 1
  }
  param {
    lr_mult: 2
  }
  convolution_param {
    num_output: 512
    pad: 1
    kernel_size: 3
  }
}
layer {
  name: "relu4"
  type: "ReLU"
  bottom: "conv4"
  top: "conv4"
}
layer {
  name: "conv5"
  type: "Convolution"
  bottom: "conv4"
  top: "conv5"
  param {
    lr_mult: 1
  }
  param {
    lr_mult: 2
  }
  convolution_param {
    num_output: 512
    pad: 1
    kernel_size: 3
  }
}
layer {
  name: "relu5"
  type: "ReLU"
  bottom: "conv5"
  top: "conv5"
}







layer {
  name: "roi_pool5"
  type: "ROIPooling"
  bottom: "conv5"
  bottom: "rois"
  top: "roi_pool5"
  roi_pooling_param {
    pooled_w: 6
    pooled_h: 6
    spatial_scale: 0.0625 # 1/16
  }
}

layer {
  name: "scaled"
  type: "Scale"
  bottom: "roi_pool5"
  bottom: "boxscores"
  top: "scaled"
  scale_param {
    axis: 0
  }
}


layer {
  name: "fc6"
  type: "InnerProduct"
  bottom: "scaled"
  top: "fc6"
  param {
    lr_mult: 1
  }
  param {
    lr_mult: 2
  }
  inner_product_param {
    num_output: 4096
  }
}
layer {
  name: "relu6"
  type: "ReLU"
  bottom: "fc6"
  top: "fc6"
}
layer {
  name: "fc7"
  type: "InnerProduct"
  bottom: "fc6"
  top: "fc7"
  param {
    lr_mult: 1
  }
  param {
    lr_mult: 2
  }
  inner_product_param {
    num_output: 1024
  }
}
layer {
  name: "relu7"
  type: "ReLU"
  bottom: "fc7"
  top: "fc7"
}


##################################
# two streams

layer {
  name: "fc8c"
  type: "InnerProduct"
  bottom: "fc7"
  top: "fc8c"
  param {
    lr_mult: 1
  }
  param {
    lr_mult: 2
  }
  inner_product_param {
    num_output: 20
    weight_filler {
      type: "xavier"
    }   
    bias_filler {
      type: "constant"
      value: 1
    } 
  }
}

layer {
  name: "softmax_cls"
  type: "Softmax"
  bottom: "fc8c"
  top: "classification_prob"
  softmax_param {
    axis: 1     # summing over class scores
  }
}


layer {
  name: "fc8d"
  type: "InnerProduct"
  bottom: "fc7"
  top: "fc8d"
  param {
    lr_mult: 1
  }
  param {
    lr_mult: 2
  }
  inner_product_param {
    num_output: 20
    weight_filler {
      type: "xavier"
    }   
    bias_filler {
      type: "constant"
      value: 1
    } 
  }
}

layer {
  name: "softmax_reg"
  type: "Softmax"
  bottom: "fc8d"
  top: "detection_prob"
  softmax_param {
    axis: 0     # summing over region proposals
  }
}




##################################
layer {
  name: "eltwise-prod"
  type: "Eltwise"
  bottom: "classification_prob"
  bottom: "detection_prob"
  top: "cls_prob"
  eltwise_param { operation: PROD }
}
